PatchTST/ckpt/patchtst_submit_0916_1_epoch13.pth (torch, 515355 bytes, 65 tensors)

module.model.backbone.W_pos f4 [13, 64]
000000 b9 95 ee bc 01 7a d3 3c 7a fd 2e bd aa 32 d5 3c
       -0.029124128 0.025815012 -0.042722203 0.026025135
000010 32 15 35 bc 07 b5 58 bd fc d7 4a 3d 28 9b 00 3d
       -0.011052417 -0.052907016 0.049522385 0.03139797
000020 7a 15 f8 3c f5 cb b1 3d 6b dd e2 3c 81 64 9c 3c
       0.030283678 0.0868148 0.027693471 0.019090893
000030 a4 93 1a 3d 01 7c 4f bd a6 07 39 3a 78 f0 07 bc
       0.037738457 -0.05065537 0.00070583296 -0.008297078
000040 5a 6c 5f bd 0b 34 34 bd 01 72 0a bc 40 fd 3a 3d
       -0.05454669 -0.043994945 -0.008450032 0.045651674
000050 43 6f b1 bd 38 69 a8 3c 10 a4 be bc cc 3e 76 bd
       -0.086637996 0.020557985 -0.02327159 -0.06011848
000060 ee 3c f6 bd 67 70 cd bc 1e 6c 50 bd c3 b8 c0 bd
       -0.1202334 -0.025078012 -0.05088436 -0.094102405
000070 da 0b 03 bd 76 a8 56 3d bb b7 bc 3d c9 ea b2 3d
       -0.031993724 0.05240675 0.09214731 0.08736188
000080 f0 41 70 bd e7 3f 81 3d fd 65 e6 3b 81 95 a8 3c
       -0.058656633 0.063110165 0.007031201 0.020579102
000090 67 85 a8 bc af 8d 00 3d e1 53 fe bd 39 e3 54 3d
       -0.020571424 0.03138512 -0.124183424 0.05197451
0000a0 fa 5a 3c 3d 6c 31 95 bd ff 39 8a bc d6 c2 a3 bd
       0.0459852 -0.07284817 -0.016873358 -0.079961464
0000b0 a2 f9 0e bd 71 d4 da bc ac 70 3a 3d 9f 36 c9 bd
       -0.034906037 -0.026712628 0.04551761 -0.09824871
0000c0 40 d8 91 3c de 93 82 3d 3d d5 91 3c 5d 2c ac 3d
       0.017803311 0.0637586 0.017801875 0.08406899
0000d0 38 e6 19 3d f6 c4 f2 3c 45 c7 a5 3c 39 54 24 3d
       0.03757307 0.029634934 0.02023662 0.040119383
0000e0 a7 0a 43 3b c3 99 b9 bd 36 c7 30 b9 34 4b 14 3d
       0.0029760988 -0.09062531 -0.0001685888 0.03620453
0000f0 d0 28 f3 3c 03 81 39 3c a6 b1 ba bc 2e 6a 2c 3b
       0.029682547 0.011322263 -0.022789788 0.0026308405
000100 de bc 42 bd 00 64 57 bc e1 55 32 3c 54 3e 46 3d
       -0.0475434 -0.0131464 0.010884733 0.048399284
000110 44 ab 78 3c f3 db 85 bd e8 05 a6 3b 62 52 64 3c
       0.015177552 -0.065360926 0.005066622 0.013935657
000120 f6 70 96 3d 8f f9 c6 3d 9f d1 0b 3c 71 8c b5 3c
       0.07345764 0.09715568 0.008533864 0.022161694
000130 f0 87 9a 3d c6 2d a7 bc 93 c7 1e 3d 64 94 01 3d
       0.07545459 -0.020407569 0.038764548 0.031635657
000140 20 5f 87 bd 65 95 93 bd 26 4f 22 3d 80 72 d8 bc
       -0.066099405 -0.07206229 0.039626263 -0.026421785
000150 04 8c 00 bd ce 6d 14 3c 9a 92 c1 3b c5 54 21 bd
       -0.03138353 0.009059383 0.005907369 -0.039387483
000160 20 ae 3e bd 00 77 ea 3a 01 b3 95 3b 17 2d d4 bc
       -0.046552777 0.0017888248 0.004568458 -0.025900407
000170 a8 9e 29 bc c2 9a 8e bb dd 9e ba 3d 12 c0 88 3c
       -0.010352768 -0.0043519447 0.09112332 0.016693149
000180 ed 1c 50 bd 0b cf 85 3d 44 48 cb 3c ed 49 4f bd
       -0.050808836 0.06533631 0.024814732 -0.05060761
000190 50 69 bf bd 99 7a b7 3c d7 02 78 bc 60 3b 70 bc
       -0.09346259 0.022397326 -0.015137396 -0.014662594
0001a0 6b e7 22 3d 6a fd 0d bd 65 65 77 bd 36 30 77 bd
       0.03977148 -0.034665503 -0.06039943 -0.060348712
0001b0 e5 b7 db bb 04 75 c6 bb 08 ae 99 3c 66 76 9b bd
       -0.0067052715 -0.00605643 0.018759742 -0.07590942
0001c0 1d 3d c8 3d bc b7 d0 3c b5 5a 6a 3d 4a cf 0b 3d
       0.097772814 0.025478236 0.05721541 0.034133233
0001d0 bc 20 b1 3c 52 65 44 bc 21 dc 8c bc a8 a9 54 3b
       0.021622054 -0.011987047 -0.01719481 0.0032449756
0001e0 c4 c6 05 3d 77 73 aa 3b 64 58 76 bc f7 15 48 bd
       0.03266026 0.0052017528 -0.015035722 -0.048849072
0001f0 a8 27 6c 3d e1 15 84 3c da 94 1b bd 29 ac 2d 3d
       0.057655007 0.016123714 -0.037983753 0.042400513
000200 91 97 68 bc 70 59 74 bc 1c 58 39 bb cb 14 68 3d
       -0.0141962925 -0.014913902 -0.0028281277 0.056660455
000210 de 55 a9 bc 7f 6e 4b bd af 11 05 bd d7 4b b6 3c
       -0.020670827 -0.049665924 -0.032487568 0.02225296
000220 c1 e8 ac ba a3 ce d0 3d ba e2 04 bc 06 00 86 3d
       -0.0013191925 0.10195663 -0.008110696 0.06542973
000230 6e d1 08 bb c8 f7 19 3d c1 85 3a 3d 09 56 be 3c
       -0.0020876783 0.03758982 0.045537714 0.023234384
000240 9d 40 a9 bd 53 c4 7b bd d0 36 e0 bc 8e 83 22 3c
       -0.08264277 -0.061466526 -0.027369887 0.00991906
000250 74 51 fc bb 8a d4 db 3d a6 5a 7a bd 41 f3 ba bd
       -0.0077001397 0.10733898 -0.061121605 -0.09128428
000260 90 b0 97 bc c1 b2 1f 3d b9 38 c8 ba 80 41 c7 bc
       -0.018516809 0.038988832 -0.0015275694 -0.024323225
000270 0b ef 4c bd 88 b1 fc 3c 8d 20 d6 3d 84 1d ba 3d
       -0.050032657 0.030846372 0.10455427 0.09087661
000280 a2 40 90 3d 4f 6f b4 3c bc 71 1b 3d 34 ce 52 3b
       0.07043578 0.022025732 0.037950262 0.0032166364
000290 91 7d 00 bd 92 00 d2 3c 1a 1a c4 bd 22 9e 49 3d
       -0.03136975 0.025635038 -0.09575291 0.049223073
0002a0 60 b1 ab 3c 42 85 bd bc e3 c7 7b 3d c2 76 33 bd
       0.020958602 -0.023134831 0.061469924 -0.04381443
0002b0 02 a4 1c 3d bc a5 be bc 73 ac a7 3c 85 cb eb bb
       0.038242348 -0.023272388 0.020467972 -0.0071958923
0002c0 98 71 b0 3c a0 9d 8d 3d 28 0d 1c bd 92 c5 37 3d
       0.02153854 0.0691483 -0.038098484 0.044866152
0002d0 51 00 ac 3c 41 22 c3 3d 2b 55 4d bc 69 d3 55 3c
       0.020996245 0.09528018 -0.012532513 0.013050892
0002e0 b3 56 37 3a 62 e4 a7 3a b3 7b 1b bd 91 f7 f1 bc
       0.0006993815 0.0012809152 -0.037959766 -0.029536994
0002f0 c4 5b 0c bb 21 ad 2d 3d 86 32 0f 3d 4c 46 87 bc
       -0.0021417001 0.042401437 0.034960292 -0.016513012
000300 db 29 c9 bb 2c 88 ea bd 0b d9 05 3d 55 12 96 3b
       -0.0061390228 -0.11451754 0.03267769 0.004579822
000310 a5 a2 f4 b9 f6 0a 4b bd a7 cd 00 bc e5 ed 23 3c
       -0.00046660486 -0.049571 -0.007861531 0.010005449
000320 31 83 7d 3d 88 80 c4 3c 51 18 31 bd 75 41 65 3c
       0.061892692 0.02398707 -0.04323608 0.013992657
000330 d5 7a d5 3d 79 c5 26 bd 51 2d 97 3c d8 fa 8a 3d
       0.10423819 -0.04071567 0.018454226 0.06786126
000340 a6 7a 54 bd 88 ef 49 bd e1 ee 83 3d 77 78 4d bc
       -0.05187478 -0.0493007 0.06442047 -0.012540928
000350 9e 8c 4d 3c 7e d7 81 3c cf e4 96 3c 3f 53 11 3d
       0.012545733 0.015849825 0.018419651 0.03547978
000360 e5 3d 8a bb e1 ba 87 3d ad 76 f5 bc 94 db 5f bc
       -0.004218804 0.06627441 -0.029963816 -0.013663191
000370 17 61 21 bc 8c 95 a1 3c 51 75 c7 3b a5 a0 73 bc
       -0.009849808 0.01972463 0.0060869833 -0.014869844
000380 d4 3f b5 bd 41 a4 20 bc ef 12 24 3c 3b 09 aa bc
       -0.08850065 -0.009804786 0.01001428 -0.020756355
000390 74 da 9a bd 57 7d b7 bb b0 22 c8 bd 14 92 4d 3d
       -0.07561198 -0.0055996585 -0.09772241 0.05018814
0003a0 13 bc 37 3d 3c 8c 04 3d 2e b2 fc 3c 7e 66 de 3b
       0.044857096 0.0323603 0.030846681 0.0067871204
0003b0 0e 51 ce 3d 65 34 79 3c 4d 8e 97 bd 3a 73 3d 3d
       0.10074054 0.015210246 -0.074001886 0.046252467
0003c0 31 4d f0 3d bc 75 f3 bc 0d a8 13 bd 8f 5e 6a 3c
       0.11733473 -0.029719226 -0.036048938 0.014304771
0003d0 8d 8a 93 3d 3b 54 64 bd 65 d8 91 b8 ea 23 ec 3c
       0.07204161 -0.05574439 -6.9544454e-05 0.028825719
0003e0 1c 1b 8e bc a2 84 9e bc 20 64 d4 bd 13 49 56 bd
       -0.017346911 -0.019350354 -0.1037066 -0.052315783
0003f0 3c 5c 03 bb b0 13 6e ba 6d 85 29 bd 96 85 38 bd
       -0.002004399 -0.0009081913 -0.04138701 -0.045049272

module.model.backbone.W_P.weight f4 [64, 16]
000000 a4 2f f5 3d 5a 69 22 be d0 ed e0 3d 56 bb 57 be
       0.11971977 -0.15860501 0.10982859 -0.21067557
000010 1a 08 13 3d c2 23 b2 3d e5 cc 2b be 1b f8 71 3e
       0.035896398 0.086982265 -0.1677738 0.23629801
000020 2f 51 8c bd 42 46 e4 bd 4d e5 f6 bc 98 7c 76 3e
       -0.06851422 -0.11146213 -0.030138636 0.24070966
000030 4a 14 28 bc 6f 14 1c 3e ff f8 ae 3d fc 96 7f 3e
       -0.010258744 0.1524217 0.08543586 0.2495994
000040 b4 9c a3 3e 6a 2f d1 3d 8e dd 8a be 1c cc 80 3e
       0.31955492 0.10214122 -0.27122158 0.25155723
000050 26 20 35 3d 27 cf 2a 3e 2d 95 b2 3c c4 c4 eb bd
       0.044220112 0.16680585 0.021799648 -0.115121394
000060 93 27 89 be 6d e5 7e bd dd 6c 2a 3e f5 27 00 3e
       -0.26788005 -0.062230516 0.1664309 0.12515242
000070 13 23 0b 3e 11 b2 f9 3d 8c 0c a5 3c 94 2f 1b be
       0.13587599 0.121921666 0.020147584 -0.15154868
000080 68 48 f0 bc 33 e9 9a 3e 37 6d c5 3d 14 3a 76 3e
       -0.029331401 0.30256042 0.09639972 0.24045593
000090 88 5a 5b 3b 0c 40 2b bd e3 54 b3 bd bb 9c 6d 3e
       0.003347071 -0.041809127 -0.08756425 0.23204319
0000a0 fc 8b 12 be 07 32 11 be 9b 26 ce 3d 16 65 5a 3e
       -0.14311212 -0.1417924 0.10065957 0.21327624
0000b0 11 52 4d be 5a 66 0c bd ef cc 43 3d 04 68 07 bc
       -0.20050837 -0.034277298 0.04780286 -0.008264545
0000c0 c7 c9 66 3d 1b 1d ee 3d f1 c8 3f be 65 d7 73 bd
       0.056344774 0.11626645 -0.18728997 -0.059531588
0000d0 29 91 98 3d 80 8a 4f 3e 50 78 f1 bd f8 fd 8c 3d
       0.07449562 0.20267677 -0.11790526 0.06884378
0000e0 9e 8e 4c 3c 9c 65 d5 3c e2 b8 90 be 1b 7a 30 be
       0.012485174 0.026049428 -0.28266054 -0.1723408
0000f0 6f b1 35 3d 60 f2 47 be cf 9e 1f 3e da ae 06 3d
       0.044358667 -0.19526052 0.15587924 0.032881595
000100 1b ba dc 3c 49 72 c7 bd 42 63 17 3d 98 5d 20 3e
       0.02694421 -0.09738595 0.036959894 0.15660703
000110 54 10 b9 bc 77 71 46 bd 55 a9 e6 3d aa 18 11 3e
       -0.022590794 -0.048448052 0.11262766 0.14169565
000120 0d 5c 9b 3d 27 05 63 3e ee 06 df bd 7c ac 91 3d
       0.07585917 0.22169934 -0.108899936 0.07112977
000130 67 41 56 bd c0 03 3c 3e 49 67 e0 3d f1 be a4 3d
       -0.052308466 0.18360806 0.109572 0.08044232
000140 8f 83 72 3e 0e 93 13 3e 84 42 72 3d 25 0d 23 3d
       0.23682998 0.14411566 0.059145465 0.039807457
000150 a3 c3 e0 3c 5c 5d b3 bd 28 34 21 3e 23 16 ab bd
       0.027437037 -0.08758041 0.15742552 -0.083538316
000160 a4 b3 b0 3d 8d 4d e2 bd da b4 cf bd 8d 04 3f 3d
       0.08628014 -0.11049948 -0.101419166 0.0466352
000170 46 16 9b bd 0f 9b ae bd f6 a9 59 be 9f e4 9c 3e
       -0.07572608 -0.08525669 -0.21256241 0.30643174
000180 e4 09 27 bd c1 b8 de 3d bf 80 75 be c5 55 32 3e
       -0.040780917 0.10875083 -0.23974894 0.17415531
000190 72 d4 03 3e 05 1d c6 bc ac 0e 84 3d da 82 76 3d
       0.1287401 -0.02418376 0.06448111 0.060183384
0001a0 14 9d 43 be a5 48 2a 3d cd b0 67 be 79 46 c2 bd
       -0.1910289 0.041573185 -0.22626038 -0.09486098
0001b0 21 3d 8c 3e 2d f8 89 3e 31 42 be 3d 5c 48 60 3e
       0.27390388 0.26947156 0.09289969 0.21902603
0001c0 85 c2 7a be 3a 5c 01 3e d3 91 2f bd f7 5b 97 bd
       -0.24488266 0.12632838 -0.04286368 -0.07390588
0001d0 41 89 82 3e ab 73 69 3e 97 23 49 bd 4b e2 53 bd
       0.2549534 0.2279803 -0.049106207 -0.05172948
0001e0 5e 99 58 3b bf fd 61 be d2 ad fa 3d 5e 91 cd bd
       0.0033050398 -0.22069453 0.12240185 -0.10037492
0001f0 d7 0d cb 3d 4d c3 79 3e de 10 8c 3d 87 c0 2a be
       0.09914749 0.24390908 0.06839155 -0.16675006
000200 fc a7 51 be 9d d1 80 3d bf 64 37 3e 12 3f 47 3e
       -0.20474237 0.062899806 0.17909525 0.19457653
000210 a5 67 27 be 6a 0e f2 bd bc 3a 30 be f4 32 77 be
       -0.16348131 -0.118191555 -0.17209905 -0.24140531
000220 df e0 2c be bd 16 4c 3d a8 39 a2 3d fc 73 2c 3e
       -0.16882657 0.049826372 0.07921153 0.1684112
000230 c2 cf 22 be 64 4f f7 3c 3d 00 02 be 88 a1 fb bd
       -0.15899566 0.030189224 -0.12695403 -0.12286669
000240 30 1e ec 3d 55 88 c7 3c 98 0e cb bd 47 9a f9 3d
       0.11529195 0.024357 -0.09914893 0.12187629
000250 9a a6 d6 3d 38 a2 6f bd 1e 3b 96 bd d6 91 8b be
       0.104809955 -0.058504313 -0.073354945 -0.27259701
000260 88 b3 84 3d 69 28 34 3e d4 65 47 be 98 a6 24 3e
       0.06479555 0.1759354 -0.19472438 0.16079175
000270 47 b9 56 be 32 97 74 3e bd 37 36 be 04 ee 97 be
       -0.20969115 0.23885801 -0.177947 -0.2967378
000280 0d c0 a9 3e d2 c3 b4 3b 92 16 dc 3c dd 67 49 3e
       0.33154336 0.0055165077 0.026866231 0.19668527
000290 41 ac 80 3e 32 bb 53 be 3a 55 96 bb 02 68 37 be
       0.2513142 -0.20676878 -0.0045877965 -0.1791077
0002a0 11 52 17 3d 40 be 35 be e5 e6 c0 3d 9a a9 19 3e
       0.0369435 -0.17748356 0.0941904 0.15006104
0002b0 c6 84 1f 3e 2e 41 93 bd bf 2b 8a 3e 94 74 4c be
       0.15577993 -0.071901664 0.269865 -0.19966346
0002c0 54 c1 60 3e a9 e0 c1 3c 11 b7 f4 3c 49 85 0f 3e
       0.21948749 0.023666697 0.02987245 0.14015688
0002d0 65 61 19 be f2 8b a1 3d 7a f4 17 3e 2c 7e 64 3b
       -0.1497856 0.078880206 0.14839354 0.0034865243
0002e0 2e b7 bd 3d 04 84 ce bd 6b d4 f4 bc 95 c8 27 3d
       0.092634544 -0.10083774 -0.029886445 0.040962774
0002f0 4b 62 d0 bc ac 89 01 be 10 05 63 be dd 2d 7c be
       -0.025437495 -0.12650174 -0.221699 -0.2462687
000300 03 0b 2c be 27 df 96 3c b1 49 4a be b1 6b 88 3e
       -0.16801076 0.018416954 -0.19754674 0.26644662
000310 91 17 ed 3d 33 39 2e be 6f 60 c7 3d bc f2 3f 3e
       0.115767606 -0.17014007 0.0973519 0.1874494
000320 e7 9f f2 3d 2c c4 d5 bc 55 30 cb bd 33 fa 9b 3c
       0.11846905 -0.026094519 -0.09921328 0.019040203
000330 74 5a 37 be b9 2f eb bd 2d 07 98 3c d4 36 e5 bc
       -0.17905599 -0.11483712 0.01855811 -0.027980246
000340 43 24 11 be bb d9 b2 3c e8 fa c2 bd 8e 1a a7 bd
       -0.14173989 0.021832338 -0.09520513 -0.08159362
000350 7a e7 0a 3e b7 35 32 3e 0a 15 59 be 07 9e 26 3e
       0.13564864 0.17403303 -0.21199432 0.1627122
000360 f4 ed c1 bd 37 a3 db bd 0a 03 1c 3e ac bd 5d 3e
       -0.09469214 -0.1072449 0.15235534 0.21654385
000370 5f 24 20 3e 2b e9 05 be da 91 68 3e ab dd 5e 3d
       0.15638874 -0.13077228 0.22711888 0.054410618
000380 d3 34 4c 3e fb 6f 95 bc 7f b1 05 bd c5 9b 7f 3e
       0.19942026 -0.018241873 -0.032639977 0.24961765
000390 21 9d 61 3c 58 5c 33 3d 05 86 2d 3e bc 3a e6 bd
       0.013770373 0.043789238 0.16945656 -0.112416714
0003a0 3a b2 7a bb 1b 64 0a 3e 35 7c da bd 36 56 ae bd
       -0.0038253204 0.1351475 -0.10668222 -0.08512537
0003b0 ff 68 56 3e 6b ea cb 3c c0 1c 22 3d 67 7f 29 3e
       0.2093849 0.024892053 0.0395782 0.16552506
0003c0 07 43 5e 3e 0f 48 af bc 84 06 2f bd 18 3f 8e be
       0.21705256 -0.021396665 -0.042730823 -0.27782512
0003d0 bd bb 4c be 9b 7a 84 be ec 26 2c 3e f1 d3 2a 3e
       -0.19993491 -0.2587479 0.16811723 0.16682412
0003e0 27 27 67 bd e9 51 85 3d 66 09 9e 3b c5 7f f3 3c
       -0.056433823 0.06509764 0.0048228977 0.029724011
0003f0 fd 5c 30 3e 13 e0 5b be 5b 82 a5 3d cf 71 76 be
       0.17222972 -0.21472196 0.08081504 -0.24066852

module.model.backbone.W_P.bias f4 [64]
000000 93 41 eb 3d 8b ce e3 3d 19 63 00 be 47 de 2c bd
       0.11487117 0.11123379 -0.12537803 -0.042204168
000010 b6 31 11 3d 13 5c 99 3d 2c 97 0c bd de 51 14 3c
       0.0354478 0.07488265 -0.034323856 0.009052722
000020 e8 b6 d0 bd 8c 4d b5 bd 04 f8 5b 3c 4a bf 65 bd
       -0.101911366 -0.088526815 0.013425831 -0.05609063
000030 7c ff 2d bc 13 86 7f bc 91 6d 09 be 4c 40 95 bd
       -0.010619994 -0.015595931 -0.13420703 -0.07287654
000040 6b 5d 96 3d df 1d c9 3d 68 d9 9c 3d 2c f0 2a 3c
       0.07342037 0.098201506 0.076586545 0.010433238
000050 ff 06 ac bc 6d 1b 4d bd 8d e6 dc bd f5 57 01 3d
       -0.02099943 -0.050074983 -0.107861616 0.031578023
000060 3b 34 26 be 33 da c4 bd 6a a9 90 3d 03 e6 97 bc
       -0.16230862 -0.09611931 0.07063563 -0.018542295
000070 71 33 74 bd f9 c3 86 bd 77 c0 f1 3c a2 21 c2 bb
       -0.05961937 -0.065803476 0.02951072 -0.0059244195
000080 67 ec 19 3d 79 f7 52 bd 1f 48 ae 3d c1 a3 cb 3d
       0.037578966 -0.05150554 0.0850985 0.09943343
000090 0a bb 2e 3e cb 9c 29 bc 5c f7 af 3d 77 63 c7 bd
       0.17063537 -0.010352324 0.08592102 -0.09735768
0000a0 7d 58 51 bd ba 0f e0 ba 06 d2 bd bd 85 59 0a 3d
       -0.05110978 -0.0017094531 -0.092685744 0.03377678
0000b0 ff 75 c1 3d 94 58 8c 3b 2d d1 4b 3d 7d 78 db bc
       0.09446334 0.0042830203 0.049760032 -0.026790852
0000c0 02 3e 97 bd 3d a0 eb 3c d9 b2 a1 3c 47 2c ad bd
       -0.07384874 0.028762931 0.019738602 -0.08455711
0000d0 09 9e 43 3d 75 1e 20 3e 1e 27 4d 3b 43 7e 93 3d
       0.047758136 0.15636618 0.0031303833 0.07201817
0000e0 22 19 82 3d 64 12 4f bd fc 6c 05 bd e2 67 a2 3d
       0.0635245 -0.050554648 -0.03257464 0.0792997
0000f0 0a 27 59 3d 56 41 87 bd 72 45 9c 39 01 65 8c bc
       0.053015746 -0.06604259 0.0002980638 -0.017138006

module.model.backbone.encoder.layers.0.self_attn.W_Q.weight f4 [64, 64]
000000 a2 cc bf bc fa 00 b2 3d 5b 21 20 3c 62 dd 0d 3d
       -0.023413006 0.086915925 0.009773578 0.034634955
000010 ea 91 ac ba a5 03 f4 3d 00 9f 6b bd 63 c2 75 3d
       -0.0013166044 0.11914758 -0.05752468 0.059999835
000020 47 b5 ae 3d 88 28 b6 bd 62 b9 a5 3c aa e3 19 3d
       0.0853067 -0.088944495 0.020229999 0.037570633
000030 ab 27 ca bd 8e bc 08 bd 99 61 cf 3c 00 77 2f 3d
       -0.09870847 -0.033382945 0.025315093 0.042838097
000040 52 16 75 3d c8 92 e4 bd 78 f0 b7 bd 46 2c 29 be
       0.05983574 -0.11160809 -0.08981413 -0.16520795
000050 c4 14 91 bb cc ee c9 bd de b3 5a bd f7 b2 19 3e
       -0.0044275243 -0.0986 -0.05339419 0.15009676
000060 f6 7c 6e 3d b3 01 23 b9 06 de 0f be c9 37 70 3d
       0.05822464 -0.00015545524 -0.14049539 0.05864695
000070 1e 64 75 bc 67 ed 96 bc 64 29 21 bd 9d 0a 37 bd
       -0.014977483 -0.01842375 -0.039346114 -0.044687856
000080 18 ea ad bd e8 58 a3 3d c8 b0 a0 3d 94 57 eb bd
       -0.084919155 0.07975942 0.07846218 -0.114913136
000090 ff 7f 27 bd a4 99 d0 3d 44 7a 3f bd 15 d7 99 bd
       -0.04089355 0.101855546 -0.04674746 -0.07511727
0000a0 b6 22 1a 3d 69 f8 14 bc c6 d2 b0 3d 1c 34 1b 3d
       0.03763076 -0.009092429 0.08633952 0.037891492
0000b0 d1 23 ca bd 64 84 97 3c 51 74 a9 bc 80 62 25 bd
       -0.09870113 0.018495746 -0.020685347 -0.04037714
0000c0 4a 6e 8b 3c af ec 4c bd ef 66 ad 3d 6f dc 5f bd
       0.017020363 -0.050030407 0.08466899 -0.05465358
0000d0 43 ef b6 bd eb 9a 07 3d a3 0e 95 bd 4f 4a 9f bc
       -0.08932354 0.033106726 -0.07278182 -0.019444613
0000e0 63 ba 55 bc 92 96 9c 3d f1 33 06 bb 9b 6b f6 bd
       -0.013044926 0.076459065 -0.0020477737 -0.12032243
0000f0 e8 20 c4 bd 02 2f d1 bd 7b 41 d9 bd a1 37 98 3d
       -0.09576589 -0.10214044 -0.106081925 0.07432485
000100 f7 4d e9 bc 38 31 79 3d 40 fa fa 3c 6b 5c 89 bd
       -0.02847956 0.060837954 0.030636907 -0.067070805
000110 44 b4 88 3d fc 46 18 3d bf f1 8e 3b b3 30 e7 3d
       0.06675008 0.03717707 0.0043623145 0.112885855
000120 a8 c3 b7 bd 5b 8e f6 bc a9 36 97 bc 4c 47 78 bb
       -0.08972865 -0.030097177 -0.018458681 -0.0037884293
000130 21 4d 20 3d 00 14 01 be e3 d9 9e bd 16 c5 0b 3e
       0.039136056 -0.12605286 -0.07756402 0.13649401
000140 5e 68 bc bd e0 e4 d7 3b 27 2a 24 3e 95 3f a0 3d
       -0.09199594 0.0065885633 0.16031705 0.07824627
000150 f9 2f 98 3d 17 26 09 bd cb ad 1d bd c6 c7 8e bc
       0.07431025 -0.03348359 -0.03849582 -0.017429244
000160 95 f0 e3 3d d8 1a 9f b8 93 03 9c 3c fd 73 e4 3d
       0.11129872 -7.586711e-05 0.019044673 0.111549355
000170 45 df 4c bd d0 05 61 3d 31 77 64 3d 75 53 7b 3d
       -0.050017614 0.054937184 0.055777732 0.061358888
000180 1a 0d 6e 3c bf b0 f2 bc c1 77 40 bd 72 35 cb bd
       0.014529491 -0.029625295 -0.046989206 -0.09922303
000190 88 1a 21 3e d3 4b 11 be 32 cc 4f 3d 3e 59 1a bd
       0.15732777 -0.14189081 0.050731845 -0.037682764
0001a0 03 78 18 bc 10 09 00 bd b0 4a d3 3c d9 1b 2d 3d
       -0.009305957 -0.031258643 0.02579245 0.042262886
0001b0 af 0f 09 bd 30 fe eb bc 69 dc e6 bc d3 60 8a bd
       -0.033462223 -0.02880773 -0.028181272 -0.06756749
0001c0 96 ba 60 bd d2 08 88 bd e7 fb 68 bd ce f4 cc 3c
       -0.054865442 -0.06642307 -0.056880858 0.025019076
0001d0 78 3a a8 3d 54 63 d4 bd 19 64 be 3d ce 4c 6a 3d
       0.08214277 -0.10370508 0.09296436 0.057202153
0001e0 1e 69 f0 bd 55 29 ca bb 8f 4b 60 bd 22 e5 db 3d
       -0.117387995 -0.006169478 -0.05475956 0.10737063
0001f0 8c 97 1d 3d 62 1a e9 bd 77 93 0a bc 39 49 22 bd
       0.038474604 -0.11381985 -0.00845801 -0.03962061
000200 ac 77 02 be 97 a7 5a 3b b3 c6 41 3d 75 a3 be 3d
       -0.12740964 0.0033364051 0.047308635 0.09308521
000210 67 1c c3 3c 4f bb 6d 3d f2 27 8b bd 74 cc c3 bd
       0.023817254 0.05803996 -0.06794728 -0.09560481
000220 37 ad 56 bd 83 8f b0 3d e5 38 4e bd 9f 47 c7 3d
       -0.052411284 0.08621123 -0.050347228 0.097304575
000230 d2 e7 f8 3d 34 dd f1 bd ec 5a 87 bd e3 5a 5e 3d
       0.12153591 -0.11809769 -0.06609139 0.054285895
000240 1f bf 0b be 9d 50 fa 3c cf 73 14 bd ce b6 3b bd
       -0.13647126 0.030556018 -0.036243256 -0.045828633
000250 6a c4 97 bc 02 04 9b bd 4e 7a 16 3d c0 5d 51 bd
       -0.018526275 -0.07569124 0.036737733 -0.051114798
000260 47 5f 59 bd 69 5f 25 bd 97 8d e6 bd db 0c d6 3d
       -0.05306938 -0.040374193 -0.11257475 0.10451671
000270 40 5f f0 bd 6b c8 89 bd 6f bc c0 3a 17 b0 0c 3e
       -0.117369175 -0.0672768 0.0014704595 0.13739048
000280 04 9a b9 3c 42 b2 d2 bd d9 31 6f bd c1 0c 05 be
       0.022656448 -0.10287906 -0.058397148 -0.12993146
000290 a9 73 c8 bd fa a9 9c bc af 1d be bc 08 bd d1 3d
       -0.097876854 -0.01912402 -0.023207514 0.10241133
0002a0 b8 93 2c 3a e8 b6 5e bd 8c 71 6c bd 4d af 00 3e
       0.0006583291 -0.05437365 -0.057725474 0.12566872
0002b0 05 bf c3 bc 35 df df 3d b3 1c 98 bb 03 06 e1 3c
       -0.023894796 0.10931245 -0.004642093 0.027468687
0002c0 50 0d 89 3b 06 89 90 3d f5 46 ad 3d 0f 57 16 3e
       0.004182495 0.07057385 0.084607996 0.14681648
0002d0 9e 5f 02 3c 45 10 46 3d 97 34 fb bc fd c7 8e 3d
       0.007957367 0.04835536 -0.030664725 0.069717385
0002e0 4a fe 45 3d 6a 7c 7d bc e7 04 b2 3b cb 73 9e 3b
       0.048338212 -0.015471557 0.0054327133 0.004835581
0002f0 38 71 05 3e e8 fc ca bd 08 9e cc 3d bf a4 23 be
       0.13031471 -0.09911519 0.099910796 -0.15980814
000300 91 67 3c bc fd 4d 5a bd 39 1a ad ba 9a b7 df bd
       -0.0114993015 -0.05329703 -0.0013206667 -0.10923691
000310 26 e4 0a 3e c8 f5 60 3d 6f 16 04 3e 6a 53 a8 3d
       0.13563594 0.054921895 0.12899183 0.08219035
000320 d6 af 07 bd 5b b6 e8 bc 8a 22 1d bd 5d 49 15 be
       -0.033126675 -0.028407266 -0.038363017 -0.14578767
000330 92 3f 2c be 89 af 8d bd ad fc 00 38 b0 4f 0c bd
       -0.16821125 -0.06918246 3.07529e-05 -0.034255683
000340 a2 c7 ea 39 7d 5a 56 3e 3a 28 c5 3c 4c 4f 38 3e
       0.00044780696 0.20932956 0.024067033 0.17999
000350 7f 13 87 3d a9 0e 01 bd 5e 68 17 3d 09 db a1 bc
       0.065955155 -0.03150812 0.036964767 -0.019757764
000360 54 41 a0 3d 64 2e 46 bd 0c 9e 15 3e 44 11 13 bd
       0.0782496 -0.048384085 0.14611071 -0.035905138
000370 3e c9 45 bd 4b 34 43 bd 0e 23 9a 3d cf 31 83 bb
       -0.048287623 -0.047657292 0.075262174 -0.0040037404
000380 c1 e7 05 3d 4c 7b bc bd c0 79 8e bd d4 3a 3e 3d
       0.03269172 -0.092032045 -0.06956816 0.04644282
000390 ea 2a fc bc 5b 30 93 bd 57 d8 c5 bc c6 da 2b bd
       -0.030782182 -0.071869574 -0.02415101 -0.041956685
0003a0 4a 6c e0 3d 14 ef 1d 3e 71 16 a2 3d 2f e2 03 3c
       0.109581545 0.15423232 0.079144366 0.008049532
0003b0 96 a5 9c 3d a0 ca 8f 3d cf 8b 1c 3c 0b a9 32 3d
       0.076487705 0.070210695 0.009554817 0.043618243
0003c0 20 e6 01 bc fc 2e 57 3d 7f 8b a5 3d 1a 6b bd bd
       -0.007928401 0.052535042 0.080832474 -0.092489436
0003d0 3e 5f bc bd 85 31 8f bd bb 2c 84 bd 56 fc 6b bc
       -0.091978535 -0.06991867 -0.06453844 -0.014403423
0003e0 60 49 cb bd 0a 46 0e 3d e2 75 88 3c 4f 81 fa 3c
       -0.099261045 0.034734763 0.016657773 0.030579237
0003f0 a4 30 e1 3d 21 82 02 bd da b3 24 bd 6c 1d d1 3d
       0.109956056 -0.03186238 -0.040210582 0.1021069

module.model.backbone.encoder.layers.0.self_attn.W_Q.bias f4 [64]
000000 85 55 3a be 26 bd bb 3d 37 4f e8 3d 96 8b 24 3d
       -0.18196686 0.091669366 0.11343234 0.040172182
000010 7f b8 26 3d 8d ee e8 3c 21 02 fb 3c 96 a4 9a bd
       0.040703293 0.028434062 0.030640664 -0.075509235
000020 fc 7f d2 bd 38 96 e6 3d 8a 52 dd 3d 91 0c 8b 3d
       -0.10278317 0.11259121 0.10806759 0.06789506
000030 1d 01 02 3e 45 0a 29 3c 7b e8 b7 bd 80 29 a8 3d
       0.12695737 0.01031739 -0.08979889 0.082110405
000040 e2 fa 90 bd 2c a5 c9 bc 25 37 85 bd ef 85 06 be
       -0.07079102 -0.024614893 -0.065046586 -0.13137029
000050 65 07 4e bd 1a bf 09 3e db 67 2a 3e f2 66 1d be
       -0.05030002 0.13451806 0.1664118 -0.15371302
000060 bc f3 74 3e 23 8a 83 be 9b 5b 5e 3e 8e 79 2b 3c
       0.23921102 -0.25691327 0.21714632 0.010465993
000070 58 c2 e4 3d 34 44 33 bd 0c d4 f8 3d 29 10 9d 3e
       0.11169881 -0.043766215 0.1214982 0.30676392
000080 c5 1b 82 bc c7 dd 04 3e 4a 79 b5 3d f7 40 01 3e
       -0.015882382 0.12975226 0.08861025 0.12622438
000090 4d be 01 3d 67 94 7d 3d b3 a9 f7 bd d3 72 c4 3d
       0.031675626 0.061909106 -0.120929144 0.095922135
0000a0 fc ea 89 3c 0c 14 2d 3d 36 8e 14 bb b7 d5 ac bc
       0.016835682 0.042255446 -0.0022667772 -0.021098
0000b0 c2 1e 14 3e f0 a0 34 3d a2 5e 31 3e e7 fd 99 bc
       0.14464858 0.044098794 0.17321256 -0.018797828
0000c0 f7 bd 00 be 7e 0a 01 be eb 85 5f 3e c1 55 48 bd
       -0.12572466 -0.12601659 0.2182843 -0.048909906
0000d0 cc 7d e2 bd 3b f2 d5 3c ed c2 09 3e 6d 9a 0d 3d
       -0.1105915 0.026116481 0.13453265 0.0345711
0000e0 0e e9 82 3d 96 88 0c bd 67 be a7 bd c7 fa 9b 3d
       0.06392108 -0.034309946 -0.08190613 0.07616191
0000f0 85 ed ce bd f2 6d a3 3d e4 20 cc bd d1 e1 05 3d
       -0.10103897 0.07979955 -0.09967211 0.03268606

module.model.backbone.encoder.layers.0.self_attn.W_K.weight f4 [64, 64]
000000 da 18 15 be fd 05 96 3a dc 97 7b 3b 99 66 1f be
       -0.14560261 0.0011445876 0.0038390076 -0.15566482
000010 06 63 60 bd d9 ca 1f be fd 03 dc ba 58 3a b1 3d
       -0.054781936 -0.15604724 -0.0016785857 0.08653706
000020 68 f2 05 3e 74 37 2c bd 48 92 91 3d e3 d6 05 bd
       0.13080752 -0.04204507 0.07107979 -0.032675635
000030 11 59 05 be 81 5c a5 bd bf 52 d0 bd 17 4b 37 bd
       -0.13022257 -0.08074284 -0.101720326 -0.044749346
000040 1c d0 a4 bc 81 11 c9 bd 41 63 12 be da 87 c5 bc
       -0.020118766 -0.09817792 -0.14295675 -0.02411263
000050 1d 6f c0 bd f6 ec a3 bd c4 8f 8a bd e4 c0 c0 3d
       -0.09396193 -0.08004181 -0.06765702 0.09411791
000060 ee f5 4c 3d 92 a0 e4 bd d3 e9 54 3d f9 3a ef bd
       0.050039224 -0.11163439 0.051980805 -0.1168117
000070 a0 e4 03 be 32 3a ae 3d 8f 8e c7 bd 82 23 ab bd
       -0.12880182 0.085071936 -0.09743988 -0.08356382
000080 f6 62 2b be a6 f9 e2 3d 59 f2 ea 3d dc d6 89 bd
       -0.1673697 0.11082773 0.114720054 -0.06730434
000090 e8 b3 af 3c e3 6b 30 bd b1 81 a1 bd a5 cd 12 bd
       0.02144809 -0.04307164 -0.07886065 -0.03584065
0000a0 b2 15 f3 bd f9 c0 ef bd 0d d9 34 3d f5 da a9 3b
       -0.118693724 -0.117067285 0.04415231 0.0051835724
0000b0 c2 88 02 bd 22 ef 7c bd e4 1a a1 3c ff ad a1 3c
       -0.031868704 -0.061751492 0.019666143 0.019736288
0000c0 92 5b 28 bd f7 c2 8b 3c 34 d6 9d bc 3a d0 93 3d
       -0.041102953 0.01706074 -0.01926718 0.072174504
0000d0 e9 e3 69 3c c9 a5 01 be 0c b4 ce bd 55 88 b6 3a
       0.014275529 -0.12660898 -0.10092935 0.0013926128
0000e0 24 b7 46 3d 92 61 fe 3d 2d c0 74 3d a8 7a dc bd
       0.0485145 0.12420954 0.059753586 -0.10765582
0000f0 67 3d 33 bd da 36 e7 bd 95 ab a4 3d 5a 42 3c bd
       -0.04375973 -0.11289759 0.08040539 -0.045961715
000100 13 7e 88 bd 2e 4f 08 be 95 20 73 3d c4 2e 29 bc
       -0.06664672 -0.13311455 0.059357245 -0.010326091
000110 34 94 40 3d 11 25 c0 3d 3b 76 a2 3d ed 28 c4 bd
       0.047016338 0.0938207 0.07932707 -0.095781185
000120 11 46 3c 3d 24 57 90 3b 4e 02 89 3d d9 67 86 3c
       0.045965258 0.004404919 0.06689893 0.01640694
000130 a1 c8 ac 3d 7c 04 bc bd f0 7b d7 3c 22 7b c3 3d
       0.084367044 -0.09180543 0.026304215 0.0954497
000140 6f 44 1b bc 46 f7 eb 3d f8 b6 3e bd 31 e4 4c 3c
       -0.009476765 0.11521773 -0.04656121 0.012505577
000150 91 70 97 3d 57 a3 3c 3d aa 6f ad 3d 8c 50 fd ba
       0.07394517 0.04605421 0.08468564 -0.0019326373
000160 bd ce c8 3d 76 a8 07 3e 4a c8 d3 3c bf f4 b7 3d
       0.09805057 0.13247856 0.025852341 0.089822285
000170 27 5d 45 bd 99 15 4d 3b 12 98 a7 bd 76 2f 68 bc
       -0.04818454 0.003129339 -0.08183302 -0.014171472
000180 b4 cc 9c 3d bf d4 49 3d 32 4a fd bd ea c8 16 bd
       0.076562315 0.049275156 -0.12367667 -0.0368127
000190 ef bb be 3d ab da 33 be 08 d2 f5 3d c9 c7 7a 3c
       0.09313189 -0.17563884 0.12002951 0.015306422
0001a0 6a dd 02 bd c5 ed e9 bd f6 cf 96 3c fe c1 04 bc
       -0.03194944 -0.11422304 0.01840971 -0.008102892
0001b0 30 61 86 3d d2 5b 71 bd 9b 6b c8 bd 47 eb 3c 3d
       0.06561506 -0.058925457 -0.09786149 0.046122815
0001c0 18 9e 9c bd bc af a7 bd 35 d2 79 bd 32 8b f2 3d
       -0.076473415 -0.081878155 -0.060991485 0.11842956
0001d0 62 e8 53 3d b8 25 c1 bc 93 25 b7 bc 54 0c f0 bd
       0.05173529 -0.023577556 -0.022356784 -0.117211014
0001e0 9f 57 b5 bc fd e5 91 bd 67 bf 98 bb 52 da 3a 3d
       -0.022136508 -0.07123945 -0.004661489 0.045618363
0001f0 dd df e5 3a 50 8a 3e 3d 30 f5 ef bd 35 ef c5 bd
       0.001753803 0.046518624 -0.11716688 -0.09664766
000200 64 ff 54 3c 17 2e 06 bc a3 3c c5 3d d5 0d 8b bd
       0.013000343 -0.0081897 0.09630706 -0.067897476
000210 5b 50 c8 bc fb 00 bc 3d 52 00 c6 bc 8e 38 d3 bd
       -0.024452379 0.091798745 -0.024170075 -0.10313521
000220 e9 a8 72 3d f5 12 51 3d 6d 32 84 bc 32 3d 9a bd
       0.059243117 0.05104347 -0.016137326 -0.07531203
000230 9d 0b bc bd b9 85 0f be 16 c8 80 3c 42 b0 d9 3d
       -0.091819026 -0.14015855 0.015720408 0.10629322
000240 63 a8 0d be b4 94 38 bd a4 b3 77 3d 93 16 20 bd
       -0.13833766 -0.04506369 0.060474053 -0.03908403
000250 5c cc 46 3e cb 4f 90 bb 35 43 b3 bd 83 c9 d0 bc
       0.19413894 -0.0044040433 -0.08753053 -0.025486713
000260 89 63 b2 3c a4 b9 69 3b 0f 2e 04 3e 2f a8 63 3d
       0.021775978 0.003566363 0.12908195 0.055580314
000270 9c 3f b5 3d 63 d0 9d 3d a6 09 12 3e 0a a1 23 3e
       0.08850023 0.07705762 0.14261493 0.159794
000280 7d 74 40 3e 09 7a 9e 3b 7c f8 dd 3d 78 61 18 bd
       0.18794437 0.004836325 0.1083841 -0.03720233
000290 1a 87 43 3d 59 0b 37 bd 4b c5 dd 3d 5a 27 34 3c
       0.047736265 -0.044688556 0.10828646 0.01099571
0002a0 ab 7a 88 3d bc d6 5e bd b9 2b f4 bc a3 8c 66 bd
       0.06664022 -0.054404005 -0.029806005 -0.056286465
0002b0 bc 89 73 bd aa 01 46 bd 86 da 9f 3d 8b 1a 9a 3d
       -0.059457526 -0.04834143 0.07805352 0.07524594
0002c0 23 93 0a 3d 1f 18 33 bd 8e a4 7f bd 2c 11 69 3c
       0.033831727 -0.043724176 -0.06241279 0.0142252855
0002d0 55 d9 09 be b6 ef 83 3d 1f a0 f7 bb 10 f5 1c bd
       -0.13461812 0.064422056 -0.0075569297 -0.038319647
0002e0 07 1c 0a bd 03 56 d1 bd 35 83 9b bd f5 31 9e 3d
       -0.033718135 -0.102214836 -0.07593385 0.07724372
0002f0 45 8a af 3c 80 e6 9a bd 4c c2 26 3e 6b 2d 80 3d
       0.021428237 -0.07563496 0.16285056 0.06258663
000300 59 1a 98 3d 55 59 9c bc 92 65 5e bd 96 d9 c5 3c
       0.074269004 -0.019085566 -0.054296084 0.024151605
000310 c2 87 0a 3e 05 3f 09 bd 0a ba d6 3d 59 0c 8c bd
       0.1352835 -0.033507366 0.10484703 -0.06838293
000320 4f 81 8f bd 7a 19 1c 3d 09 e3 fa 3c 1d bb 2d bd
       -0.070070855 0.038110234 0.030625837 -0.042414773
000330 c0 1f 49 3c 15 2c ef 3c 2c ee 1f 3d e1 51 d4 3d
       0.012275636 0.029195825 0.039045498 0.1036718
000340 45 4c a8 3d a8 66 38 3d b7 23 6e bb f4 e2 b0 bc
       0.08217672 0.045019776 -0.0036337206 -0.021592595
000350 17 38 35 bc 7b 7c 97 3d fa 0a 16 3d ec 89 0a 3e
       -0.011060736 0.0739679 0.03663156 0.13529176
000360 21 cf aa bc 0d a1 23 3d 94 d4 08 3d 8a 81 b8 3d
       -0.02085072 0.039948512 0.033405855 0.090090826
000370 b5 00 1f 3d f1 f2 18 bd ae 32 f4 3c ae 0e 69 3d
       0.038819034 -0.037341062 0.029809322 0.056898765
000380 27 99 c1 bd 87 8c 3d 3d e7 c6 1a bc 79 df 21 3d
       -0.094530396 0.046276595 -0.009446836 0.03951976
000390 c2 b0 4c bb 0f 9d 20 be 35 4e 92 bd 9e a9 90 bd
       -0.0031233286 -0.15684913 -0.07143823 -0.07063602
0003a0 21 ba 6a 3d 81 84 e8 3d 90 de 2c 3e 20 2d d5 3d
       0.057306413 0.11353398 0.16881776 0.104089975
0003b0 59 98 01 3e 08 bb d5 3d 66 b3 04 be bd d9 62 bc
       0.12655772 0.10436064 -0.1295906 -0.013845858
0003c0 39 0e bb bd 1c 00 24 be 65 8a bb bd f6 bb 8f 3d
       -0.09133572 -0.16015667 -0.09157256 0.070182726
0003d0 ef 77 24 bd 9b c7 f3 bd db 0d 3a bd 19 dd 90 3d
       -0.04015344 -0.11903306 -0.04542337 0.07073421
0003e0 56 ce a0 bc d8 92 0e 3d 29 6e 32 3d b3 fa 58 bc
       -0.019629639 0.03480801 0.04356209 -0.013243365
0003f0 6f 0e 81 bd fc 90 89 bd 37 72 9b bd 1c 1b 05 be
       -0.06301581 -0.06717107 -0.07590144 -0.12998623

module.model.backbone.encoder.layers.0.self_attn.W_K.bias f4 [64]
000000 d8 69 a3 3d 1b 71 5f 3c cc a5 59 3d 06 bf ba bd
       0.079791725 0.013637806 0.05313663 -0.09118466
000010 be 12 a4 bd 34 8b ae bd a6 e0 96 bb 8e 59 6b 3d
       -0.08011387 -0.08522645 -0.004604417 0.057458453
000020 58 23 80 3d df ea 03 3d ea c3 ea bd aa 7b 8a bd
       0.06256741 0.032206412 -0.11463149 -0.06761868
000030 b0 62 c8 bd 58 10 70 bd 10 5f fe bd 50 d5 80 bd
       -0.09784448 -0.058609337 -0.124204755 -0.06290686
000040 f3 8f 2f 3c 3e e5 52 bd 5e 09 9b 3d 40 72 8a 3c
       0.0107154725 -0.051488154 0.07570146 0.016900182
000050 6c e9 fa bc cd 9f d6 3c 0e 69 ec 3d ec 99 13 3d
       -0.030628882 0.026199246 0.11543475 0.036035463
000060 e8 a9 8b bc 49 de b8 bc 0a fe b9 3d a5 d0 02 bd
       -0.017048791 -0.022566931 0.09081657 -0.03193726
000070 b3 de dd 3d c4 69 d8 3d 89 f6 17 bd 34 c4 32 3b
       0.10833492 0.10567048 -0.03710035 0.002727759
000080 6b d9 e7 3d 9d f6 ae 3c 88 47 bf 3d 07 aa 97 bc
       0.11320766 0.021357829 0.093398154 -0.018513693
000090 e2 20 80 bd 94 40 32 bb 1b c0 9c 3c c4 59 54 bd
       -0.06256272 -0.0027199136 0.019134572 -0.05184342
0000a0 06 a2 d3 bd 1f eb c1 bd ee 83 be 3d 38 18 68 3d
       -0.10333638 -0.09468674 0.09302507 0.05666372
0000b0 9e 32 33 3c 5a b1 a7 bd c4 41 b2 3d 40 71 aa 3d
       0.010937361 -0.08188124 0.0870395 0.08322382
0000c0 32 c9 43 3c 46 4f e7 bd 32 1d b2 bd 26 34 f7 bd
       0.011949824 -0.11294417 -0.08696975 -0.120704934
0000d0 f3 01 b0 bd 4e 81 ff bd 68 5a 8c bd 9e a0 d6 3d
       -0.08594122 -0.12475835 -0.06853181 0.10479854
0000e0 7b e8 c4 bc c2 10 f0 3d 00 cb 91 3d 30 2c fa 3d
       -0.024036637 0.11721946 0.07118797 0.12215459
0000f0 b8 05 39 3d 78 c5 4a 3b 73 28 e6 3c a3 68 dc bc
       0.04517147 0.0030940454 0.02809546 -0.026905363

module.model.backbone.encoder.layers.0.self_attn.W_V.weight f4 [64, 64]
000000 72 88 ac 3d be 8e f3 3d 86 60 19 3c e4 a5 10 3d
       0.084244624 0.1189246 0.009361392 0.035314456
000010 75 ca 45 3c 4b 75 23 be 9c 77 c2 3d 16 6c 2b 3d
       0.012072195 -0.15962712 0.0949547 0.041851126
000020 d5 d6 73 bd 86 59 c6 bc 71 b8 d9 bd 8e 7d 0d 3c
       -0.05953105 -0.02421261 -0.106308825 0.008635892
000030 f1 87 a3 bd 0c 49 12 3d e4 b2 99 bc 3a 57 a7 bd
       -0.07984913 0.035714194 -0.01876206 -0.08170934
000040 72 0f 1e bd 98 f9 f9 3b f3 16 52 3d a8 37 99 3d
       -0.03858895 0.007628631 0.051291417 0.07481319
000050 36 3f f3 bd 54 8f 35 3d 00 99 b2 bb 68 6e 9c 3d
       -0.11877291 0.04432614 -0.005450368 0.07638246
000060 21 a3 88 bc 63 46 3f bc 6f d2 53 3c 01 32 34 be
       -0.016679348 -0.011674496 0.012928589 -0.175972
000070 62 bd 3b bd 3a 19 ec 3d e6 a6 79 3b b9 01 94 bc
       -0.045834906 0.11528249 0.0038093864 -0.018067228
000080 b0 3b 19 3d 9b e6 27 3c a9 d1 a4 3d b4 2f 23 3e
       0.037410438 0.010247852 0.08047802 0.15936166
000090 75 a9 6a bc 3a 1a c9 3d 59 94 e7 bd a4 00 9e 3d
       -0.014322628 0.098194554 -0.11307592 0.07714966
0000a0 bd 87 98 bc 9c 01 8e bd d4 93 28 3d 80 39 b4 3c
       -0.018619413 -0.06933901 0.041156605 0.022000074
0000b0 3e 67 98 3c 15 f5 7f bd 4f aa 10 3d 90 17 0d be
       0.018603917 -0.062489588 0.03531867 -0.1377852
0000c0 56 a1 f0 bc 93 33 eb bc 3c 21 b6 3d d0 82 03 bd
       -0.029373806 -0.028711116 0.08893058 -0.032107174
0000d0 be 68 1a 3e fb 46 c8 bc f3 bb 77 bb 1b a7 26 3e
       0.15079018 -0.024447909 -0.0037801235 0.16274683
0000e0 63 f9 4e 3d ca fc 82 bd 12 17 1f be f6 10 5b 3d
       0.050530802 -0.06395872 -0.15536144 0.053482972
0000f0 eb 97 9f bc 8c cf a9 3c 09 7e ac bc ea 81 e2 bd
       -0.01948162 0.020728849 -0.021056192 -0.110599354
000100 73 35 ae 3b 16 c1 0a 3d 16 96 7f bd c7 1f e0 3c
       0.0053164302 0.033875547 -0.062398992 0.027358903
000110 ed ac d1 bb 9f 15 73 bd c4 7d c9 bb 96 62 88 3d
       -0.006398788 -0.05934679 -0.0061490256 0.06659429
000120 2e 3a 30 bb dd de fa 3d 0d 5f 81 bd 66 78 2d 3d
       -0.0026890147 0.12249539 -0.063169576 0.04235115
000130 28 a6 25 be 09 c0 d8 bd d2 71 fb bd 05 3f 0a 3e
       -0.16176665 -0.10583503 -0.12277569 0.13500603
000140 5c 0c 4e 3a 6b 0e 44 3c 07 b1 8c 3d 38 68 4e 3d
       0.0007860118 0.011966328 0.06869703 0.05039236
000150 e0 c3 cf 3d 3e d0 58 bd 8f 0c 2a bd 92 b4 ab 3d
       0.10144782 -0.05293297 -0.041515883 0.083840504
000160 19 cc d4 3c 10 b7 ad bc 2e bc b7 3c 05 d9 97 3d
       0.025976228 -0.021205455 0.022428598 0.0741444
000170 6e e0 9f 3c 67 b1 c1 3b 6d 74 94 3d 95 6a 14 be
       0.019516196 0.0059110406 0.07248769 -0.14493783
000180 e7 02 94 bd 36 0c a3 bd 36 e0 20 bd d5 d2 5a 3b
       -0.07227116 -0.079613134 -0.039276324 0.0033389826
000190 5c f7 a9 3d 8f 5f 2a bd ed fc 17 3c 0e 1b 71 3c
       0.08299133 -0.041595038 0.009276611 0.014715923
0001a0 19 e4 a8 bc f9 77 ca 3d 48 f4 93 bc b9 16 d5 3d
       -0.020616578 0.09886164 -0.018060818 0.10404725
0001b0 be 78 ab 3d 98 a1 3c 3d c1 23 2a be e5 71 d1 3c
       0.08372639 0.046052545 -0.16615202 0.025567004
0001c0 24 6e c8 3d 12 1b 5c bd ce 06 86 3d d4 f6 95 bc
       0.09786633 -0.053736754 0.06544267 -0.018306173
0001d0 40 a2 7a 3d 83 7c 08 3e fb c6 b8 3d 04 87 07 bd
       0.06118989 0.13328747 0.090223275 -0.033087745
0001e0 8e f6 5b 3b 21 29 b3 3b fc 48 65 bd 10 c3 14 3d
       0.0033563706 0.0054675494 -0.055977806 0.03631884
0001f0 a7 f4 8f 3d c5 76 5c 3d 0f 7d 8b 3d d3 93 e5 3c
       0.070290856 0.053824205 0.068109624 0.02802459
000200 8a c6 09 bb ef 6c 49 3c 54 16 1d bc b1 ea b6 bd
       -0.002102288 0.012294038 -0.009587843 -0.089314826
000210 ae d8 7e bd 28 d2 96 3a 69 b4 02 bc 30 7a e1 bd
       -0.06221836 0.0011506723 -0.007977583 -0.110096335
000220 49 08 c1 3d b7 5c 3d bd f9 34 ed bb ec 6c 49 3c
       0.094254084 -0.046230998 -0.007238981 0.012294035
000230 68 eb ac 3d ed 95 fd bd b0 fe 8b 3d fd 91 1b 3e
       0.08443338 -0.12382112 0.06835687 0.15192409
000240 c1 5d eb 3a 07 e9 b6 3d 90 a0 a9 3d 2a 72 01 be
       0.0017957018 0.08931165 0.08282578 -0.12641206
000250 a5 34 89 3b 4d 5a ac 3d fe 42 17 ba 15 fb 14 bc
       0.004187184 0.08415661 -0.00057701755 -0.009093066
000260 cd 55 94 3d 69 a2 d1 3c e5 1e 91 bd e0 f2 9d bd
       0.07242928 0.025590139 -0.07085971 -0.0771234
000270 60 79 d4 3a a8 95 e6 bc 66 0d ba bc 50 94 c6 3d
       0.0016210489 -0.028147534 -0.022711467 0.09696257
000280 5a 16 cc 3d 80 ce fe 3c e2 d6 03 be e1 06 a9 3d
       0.09965201 0.031104326 -0.1287494 0.08253265
000290 8a aa 07 bd 4a 2c 8b 3d 38 77 46 3d 77 40 0a 3d
       -0.033121623 0.06795557 0.04845354 0.033752885
0002a0 74 fd 9d bd 0b 20 8c 3c e3 12 af bc e9 ea 0a 3e
       -0.07714358 0.017105123 -0.02137131 0.13566174
0002b0 04 1c a8 bd 87 47 03 3d db e8 b7 3b 44 74 00 3c
       -0.082084686 0.032050636 0.0056124753 0.00784022
0002c0 f5 e3 5c 3d 31 3a 59 3c 7a 6a 05 3e 54 e6 e5 3d
       0.053928334 0.013258503 0.13028899 0.11225572
0002d0 2c 60 e7 bc 1a 8d 9c bd 61 54 e1 3d e0 ea 58 3c
       -0.0282441 -0.076441005 0.11002422 0.013239592
0002e0 ae ac dc bc b4 b4 63 3d 2b 5a 36 3c 93 44 cb bd
       -0.026937809 0.055592254 0.011129896 -0.09925189
0002f0 ec fc 1d bd da a6 e3 bc d5 f6 a7 bc 81 7f 20 be
       -0.038571283 -0.027789522 -0.02050344 -0.15673639
000300 06 01 d1 3b 05 c5 a8 bd 2d 44 49 3c f8 ea 8a 3c
       0.006378296 -0.082407035 0.012284321 0.016957745
000310 22 44 77 bd 70 13 32 3c f8 de d1 3c b6 0c aa 3d
       -0.06036771 0.010868892 0.025619015 0.08303206
000320 09 6b bb 3d 94 38 fa 3c 16 91 63 3c b7 dc 37 bd
       0.09151275 0.030544557 0.013889572 -0.044888224
000330 da a5 c7 bd 29 e4 d0 bb b5 f7 92 3c a1 d1 f2 bd
       -0.097484306 -0.006374855 0.017940382 -0.1185639
000340 01 ca e9 3a 28 10 51 3a 17 38 91 bd ac 4e 11 bd
       0.0017836691 0.0007975125 -0.070907764 -0.035475418
000350 45 a6 b4 3d d7 2f bf 3d 6f f9 06 3e fb e1 de bd
       0.08820776 0.093352966 0.13181089 -0.10882946
000360 1a cd 94 3c 42 6d f5 bd 24 3a 43 3c e8 4b 14 3d
       0.018164206 -0.1198373 0.011915717 0.036205202
000370 a0 fb c5 bd 99 21 da 3b 93 90 e3 bd e1 53 22 3d
       -0.09667134 0.006656837 -0.1111156 0.039630774
000380 f7 21 87 bd 25 a4 f9 bd 75 c7 0a bd 30 e7 3e 3d
       -0.06598275 -0.12189511 -0.033881623 0.046607196
000390 13 83 35 3c 18 45 8c bd ba 59 6f bd 38 fa b6 bd
       0.011078614 -0.06849116 -0.05843518 -0.08934444
0003a0 72 63 18 bc 3c 18 8d bd 62 2b 8c 3c c0 79 53 3d
       -0.009301053 -0.06889388 0.01711053 0.05162978
0003b0 00 d1 f9 bc 93 6c d5 bb 1c c1 0d 3e 93 4f ae 3c
       -0.030495167 -0.006513187 0.13843197 0.021278178
0003c0 98 e9 a7 3d 39 80 02 be c5 77 bd bd 7e 68 3c 3c
       0.08198851 -0.12744226 -0.0925136 0.011499522
0003d0 56 55 0f be 83 27 df bc b4 e4 9a ba f5 ef 2d 3d
       -0.13997397 -0.02724052 -0.0011817426 0.04246517
0003e0 fa 42 2b be eb 5b 20 bd 1c a4 04 3e 71 6f 69 3d
       -0.16724768 -0.03915016 0.12953228 0.056991044
0003f0 99 fd f2 bd 2c 9f f2 3d fc ce 82 bc b8 97 bd bb
       -0.11864776 0.11846766 -0.015967838 -0.0057859086

module.model.backbone.encoder.layers.0.self_attn.W_V.bias f4 [64]
000000 26 cf 88 3d 8d 03 b6 3d 74 40 cb bd eb e9 ab 3d
       0.066801354 0.08887396 -0.09924403 0.08394226
000010 c2 ea 20 3d 1b ce c0 3d 84 67 15 3c 59 fb 2c bd
       0.039286382 0.094143115 0.009118918 -0.04223189
000020 c6 93 1a be a9 54 06 be 79 7f e2 bd 41 7b 81 3d
       -0.15095434 -0.13118233 -0.1105947 0.06322337
000030 d1 e5 e3 3c 7a 51 6e bd a6 bb 33 bd 63 40 02 3e
       0.027819546 -0.05818317 -0.043880127 0.12719874
000040 a1 4e c7 bd 50 f4 b8 bb 41 e4 34 bd 33 f0 01 be
       -0.09731794 -0.0056443587 -0.044162992 -0.12689285
000050 74 18 14 bd 0c da 99 3d 49 2a 57 3d e3 53 b6 3d
       -0.036156133 0.07512292 0.05253056 0.08902719
000060 25 c0 19 3e 86 fb c4 3b a6 e7 b2 3d d6 02 69 bd
       0.15014704 0.0060114292 0.0873559 -0.05688747
000070 07 11 35 3d ac b6 1a be ff 59 54 3d 08 38 52 ba
       0.04420569 -0.15108746 0.05184364 -0.00080192136
000080 7d f7 b6 3d 4c a4 82 3d 46 e3 86 3d 5e 41 73 bd
       0.089339234 0.063789934 0.06586318 -0.05938851
000090 5f 54 df bd eb a4 c0 3d 82 84 11 bd 26 e6 85 bd
       -0.109047644 0.094064556 -0.03552676 -0.06538038
0000a0 3a 7a cb bd 48 37 5c bd 39 fd 9a 3c 63 07 b0 3c
       -0.09935422 -0.053763658 0.018919574 0.021487897
0000b0 7c 14 ac ba 2c bb 23 3d 18 56 30 bc 63 e5 72 bd
       -0.0013128663 0.039973423 -0.010762714 -0.05930079
0000c0 a0 5b 0f be e2 a9 c1 bd dd 4f 82 bd ac e4 f4 bc
       -0.13999796 -0.09456231 -0.06362889 -0.029894195
0000d0 30 62 f1 3d e6 32 c5 bd f2 80 34 bc 4b 52 df bd
       0.11786306 -0.09628849 -0.011017071 -0.10904368
0000e0 8a 0c 14 3d e4 9c 99 bd b1 38 ab 3d 69 7c a0 3c
       0.03614477 -0.07500628 0.083604224 0.019590573
0000f0 6d aa d8 bd e5 e4 a8 bd 52 05 37 3c ce 60 a7 3d
       -0.10579381 -0.08246783 0.011170702 0.08172761

module.model.backbone.encoder.layers.0.self_attn.to_out.0.weight f4 [64, 64]
000000 75 20 85 bd ae 11 a6 bd 42 b3 03 be 0a 9d a6 3d
       -0.06500331 -0.08108841 -0.1286135 0.081354216
000010 f2 8f 9d bd e3 98 c1 bd 84 dc 4a bd 31 72 d6 3b
       -0.07693471 -0.09452989 -0.049526706 0.0065443744
000020 83 f0 e5 bd 25 33 55 bd e2 61 95 bd fd 5d c0 bd
       -0.112275146 -0.05205073 -0.0729406 -0.09392927
000030 d6 8e 73 bd 31 38 15 3d 89 17 62 3d 52 6a 78 bc
       -0.05946239 0.03643054 0.055198226 -0.0151620675
000040 4d 0c 8f bd 6e 92 d9 3d 45 fe 9f bc cc fe a5 ba
       -0.06984768 0.10623632 -0.019530425 -0.0012664436
000050 0d 0a 55 bd 5a 45 e9 3d 9d fb 96 3d 14 82 91 bd
       -0.05201154 0.11390181 0.0737221 -0.071048886
000060 8a bf 11 be ba bd 8c bc 71 b3 16 be a4 86 a6 3c
       -0.14233223 -0.017180312 -0.14716889 0.020327874
000070 4e d9 8a bc 8c ba 81 3b 2e c8 ee bc ec 46 9b 3c
       -0.016949322 0.0039590057 -0.029148187 0.018954717
000080 5e 6f 23 3e 31 4e 71 3d 31 e8 1d 3d f4 2a 8d bc
       0.15960452 0.05891246 0.038551513 -0.017232396
000090 51 0e df bc ad 97 3f bd b1 48 42 bd 7a 84 a8 3d
       -0.027228506 -0.04677551 -0.047432605 0.08228393
0000a0 3e 50 37 bd 79 3e 8a 3d 0d 33 5c bd 34 bf 5b 3d
       -0.04475426 0.06750197 -0.053759623 0.053649142
0000b0 e9 4d d3 bd 93 9c f7 bc 50 43 37 bd 5d 04 0a be
       -0.103175946 -0.030226028 -0.04474193 -0.13478227
0000c0 cf d8 0c 3d 1a 88 d7 3d 54 ee 16 bb f3 a4 55 3d
       0.034386452 0.10524006 -0.0023030238 0.05215926
0000d0 70 32 9a bd 56 84 b0 3b 57 66 8e 3c 4a db 52 3d
       -0.075291514 0.0053868694 0.017382784 0.05147866
0000e0 97 2a b0 bd 1b cf ef 3d 14 e2 a9 3d c9 6d 93 bc
       -0.08601873 0.11709424 0.08295074 -0.017996686
0000f0 49 d1 76 3d 50 1a b6 bd dc b1 a7 3d 8e 80 8f bc
       0.060258184 -0.088917375 0.08188221 -0.017517354
000100 f5 7a 43 3d 13 44 5f bd 02 ac 44 3d ee 12 61 3d
       0.047724683 -0.05450828 0.048015602 0.054949693
000110 f3 67 e9 bd 8c 17 f3 3d fc 44 0e 3d 8d d5 92 bb
       -0.1139678 0.118697256 0.034733757 -0.0044810236
000120 0f ca 2b bd 25 01 8f bc cd f5 4b 3d 27 51 68 bc
       -0.041940745 -0.0174566 0.04979496 -0.0141795045
000130 39 c8 f4 3c 8e 5f 72 bd 49 92 a6 bc 40 70 64 bd
       0.02988063 -0.05917316 -0.020333426 -0.055771112
000140 2f 92 05 bd bc 86 c0 3d 5b 84 05 bd 8b fd 73 bd
       -0.032610115 0.094006985 -0.032596927 -0.05956797
000150 2a 23 fd bd f1 1c a2 bd ff 52 c3 bd 62 c9 9e 3d
       -0.12360223 -0.079156764 -0.095373146 0.077532545
000160 4b 4f 85 3d cb a1 31 3c 3b 6a 04 bd 50 f5 8f 3d
       0.065092646 0.010841797 -0.03232787 0.070292115
000170 39 4a df 3c b6 7f f4 bd 13 0d 0a 3c 01 7d b3 3d
       0.027257072 -0.119384214 0.008425969 0.08764077
000180 40 69 83 3d 1b fd 87 bd b9 e0 c2 3d f9 5c 99 3c
       0.06416559 -0.06640073 0.09515519 0.01872109
000190 b3 cf 28 3c ad bc e8 bd 19 5d a4 3d 85 3c e5 bc
       0.010303426 -0.11364112 0.080255695 -0.02798296
0001a0 fb 88 9c 3d d2 a0 9e 3d 2b 19 a2 bd 24 92 c9 bd
       0.076433145 0.07745518 -0.07914957 -0.09842327
0001b0 c1 b8 d7 bd f6 48 a1 bd 7b fa 03 3e 74 a8 3d 3d
       -0.10533286 -0.07875244 0.1288852 0.046303228
0001c0 26 ea e6 3d ad 03 66 3d 5a 11 c7 3d 12 cf 21 bc
       0.11275129 0.05615585 0.097201064 -0.00987603
0001d0 64 ab 52 bd cf f4 28 3d 52 fc 36 3c 02 5c 89 bd
       -0.051432982 0.041249093 0.011168556 -0.06707002
0001e0 fb ef 7e 3d 29 e8 56 bd eb b5 4a 3c ff 3d 1d 3d
       0.062240582 -0.0524675 0.012372474 0.038389202
0001f0 e3 fc 15 3e 03 45 99 3d 4e 7f 38 3d bd 9e 7b bd
       0.1464725 0.07483866 0.045043282 -0.06143068
000200 58 5a 47 3c 6a 2f 23 bd 19 b9 0f 3e d2 d0 ef bd
       0.012167536 -0.03984014 0.14035453 -0.11709751
000210 18 58 68 bd 99 f6 2d bd af 9a 96 3d cd ed bd 3d
       -0.056724638 -0.042471502 0.07353722 0.092738725
000220 16 65 05 3e bd 90 11 bc d7 f1 c1 bd 74 47 37 3b
       0.13026842 -0.008884606 -0.094699554 0.0027966173
000230 42 82 94 bd 7e c0 c0 3d 18 45 c1 bd 8c 95 00 3d
       -0.07251407 0.09411715 -0.09437007 0.03139262
000240 2a a1 3d bc 68 d3 c9 3d 13 ef d8 bc 2e 8a 89 bd
       -0.011574069 0.09854776 -0.026481187 -0.06715809
000250 e0 2f 93 bd 43 f5 89 3c 44 1b e6 bd 58 a8 1d 3d
       -0.07186866 0.016840583 -0.11235669 0.038490623
000260 41 80 f0 bd d7 88 40 3d 70 51 8b 3d 7c 28 b0 bc
       -0.117432125 0.0470055 0.06802642 -0.02150368
000270 2e 47 a7 3c 58 82 a3 3c ec 7b bf 3d c5 e7 a4 bd
       0.020419683 0.019959614 0.09349808 -0.08052019
000280 2d e5 07 3d 95 ea f5 bd dd f4 88 bd 3b da 2f 3d
       0.033177543 -0.120076336 -0.06687329 0.04293273
000290 63 71 49 3d ef 93 0b 3d 47 bb 54 3d f1 46 7b 3d
       0.0491804 0.034076627 0.051936414 0.061346952
0002a0 bd 4a ca bc 73 75 dc bb b1 8c 4e 3b 4d 29 3a 3c
       -0.024693841 -0.006727868 0.0031516964 0.011362386
0002b0 1d 99 ca 3b 5d c0 2f bb 18 3e 5e bd 6b a0 a6 bc
       0.0061828033 -0.0026817538 -0.054258436 -0.020340165
0002c0 58 32 d9 bd bb 24 77 bc 33 d8 a4 3d 9b 26 c8 3c
       -0.106053054 -0.015084441 0.08049049 0.024432471
0002d0 dd 13 c6 3d 76 72 87 3d f3 13 d4 bc 11 5b 2b bc
       0.09671757 0.066136286 -0.025888419 -0.010458724
0002e0 cb c4 a1 bd 77 31 86 bd 34 0b 48 bd f1 22 bf 3d
       -0.078988634 -0.065524034 -0.04883881 0.093328364
0002f0 3f 11 b0 bd be ca 13 3e 88 d7 68 bd 7e 2b 7b bd
       -0.085970394 0.14432809 -0.05684617 -0.061320774
000300 79 71 a1 3d 36 1f 3e bd d0 01 09 bc a4 10 78 bd
       0.07882971 -0.046416484 -0.008362249 -0.060562745
000310 37 8a 0b 3e b6 91 bc bd cc 89 4b 3d f9 38 54 3d
       0.13626944 -0.0920748 0.04969196 0.051812146
000320 9a 78 49 3d 42 f9 10 bd 29 a4 f3 bd 16 f2 32 3d
       0.04918728 -0.03539396 -0.118965454 0.043687902
000330 7f b5 08 bd 36 d5 27 3d 48 00 9f bd d0 0a 80 3d
       -0.033376213 0.04097482 -0.077637255 0.06252062
000340 e8 b5 01 3e 23 74 7d bc 3e 6f db 3c 9e a3 9b bd
       0.12667048 -0.015469584 0.026786443 -0.07599567
000350 59 cd a5 bd c9 05 f5 3d c1 51 f2 bc b7 95 b2 3d
       -0.080958076 0.11963994 -0.029579999 0.08719962
000360 e9 a5 42 3c 41 db 07 3e 1a 6d bb bd c8 cf b9 3d
       0.011880376 0.13267232 -0.09151669 0.09072834
000370 0c 1f 8a bd 70 19 81 bd 0f c0 8b 3d ac ce b9 bc
       -0.06744203 -0.0630368 0.06823742 -0.022681557
000380 cf 28 27 bb f2 81 25 3d f3 bb 93 bd 19 11 8c bc
       -0.0025506502 0.04040713 -0.07213583 -0.017097997
000390 83 5e a0 bc 8c 47 04 bc 52 aa ba 3d d4 93 47 bd
       -0.019576317 -0.008073699 0.09114517 -0.048724964
0003a0 64 da 85 3d 54 90 6e 3d 02 88 84 3d c6 6a 5e bd
       0.06535795 0.05824311 0.06471254 -0.054301046
0003b0 5b e0 1d bb 47 f4 3d bd 74 a4 a0 bd 8c 56 43 3c
       -0.0024090025 -0.04637554 -0.07843867 0.01192249
0003c0 af 68 a6 bd 7e b2 d5 bd 20 73 92 bd 35 6b ff bc
       -0.081254356 -0.10434435 -0.071508646 -0.03117905
0003d0 6e a1 04 3c 07 06 2b bd de 2a ef 3c a8 bb 78 bd
       0.008095128 -0.041753795 0.029195245 -0.060725838
0003e0 12 c2 70 3c 3f e8 c1 bd 0f 64 a8 bd 62 fd 27 3e
       0.0146947075 -0.094681256 -0.0822221 0.16405252
0003f0 bb 48 99 bc 5f cd cd bd c8 98 a8 3d 7f 99 bb bd
       -0.018711438 -0.10048937 0.08232266 -0.091601364
